…
shape(target_shape=(5,))(ticker_embedding) \n```", "```py\nmerged = concatenate([lstm_model, ticker_embedding, months], name='Merged')\nbn = BatchNormalization()(merged) \n```", "```py\nhidden_dense = Dense(10, name='FC1')(bn)\noutput = Dense(1, name='Output', activation='sigmoid')(hidden_dense)\nrnn = Model(inputs=[returns, tickers, months], outputs=output) \n```", "```py\nLayer (type)                    Output Shape         Param #     Connected to\nReturns (InputLayer)            [(None, 52, 1)]      0\nTickers (InputLayer)            [(None, 1)]          0\nLSTM1 (LSTM)                    (None, 52, 25)       2700        Returns[0][0]\nembedding (Embedding)           (None, 1, 5)         12445       Tickers[0][0]\nLSTM2 (LSTM)                    (None, 10)           1440        LSTM1[0][0]\nreshape (Reshape)               (None, 5)           0          embedding[0][0]\nMonths (InputLayer)             [(None, 12)]         0\nMerged (Concatenate)            (None, 27)           0           LSTM2[0][0]\n                                                                 reshape[0][0]\n                                                                 Months[0][0]\nbatch_normalization (BatchNorma (None, 27)           108         Merged[0][0]\nFC1 (Dense)                     (None, 10)           280         \natch_normalization[0][0]\nOutput (Dense)                  (None, 1)            11          FC1[0][0]\nTotal params: 16,984\nTrainable params: 16,930\nNon-trainable params: 54 \n```", "```py\noptimizer = tf.keras.optimizers.RMSprop(lr=0.001,\n                                        rho=0.9,\n                                        epsilon=1e-08,\n                                        decay=0.0)\nrnn.compile(loss='binary_crossentropy',\n            optimizer=optimizer,\n      
…
20000), (1636, 20000)) \n```", "```py\nembedding_size = 100\ninput_dim = X_train.max() + 1\nrnn = Sequential([\n    Embedding(input_dim=input_dim, \n              output_dim=embedding_size, \n              input_length=maxlen,\n             name='EMB'),\n    BatchNormalization(name='BN1'),\n    Bidirectional(GRU(32), name='BD1'),\n    BatchNormalization(name='BN2'),\n    Dropout(.1, name='DO1'),\n    Dense(5, name='D'),\n    Dense(1, activation='linear', name='OUT')]) \n```", "```py\nrnn.summary()\nLayer (type)                 Output Shape              Param #   \nEMB (Embedding)              (None, 20000, 100)        2500000   \nBN1 (BatchNormalization)     (None, 20000, 100)        400       \nBD1 (Bidirectional)          (None, 64)                25728     \nBN2 (BatchNormalization)     (None, 64)                256       \nDO1 (Dropout)                (None, 64)                0         \nD (Dense)                    (None, 5)                 325       \nOUT (Dense)                  (None, 1)                 6         \nTotal params: 2,526,715\nTrainable params: 2,526,387\nNon-trainable params: 328 \n```", "```py\nrnn.compile(loss='mse', \n            optimizer='Adam',\n            metrics=[RootMeanSquaredError(name='RMSE'),\n                     MeanAbsoluteError(name='MAE')]) \n```", "```py\nearly_stopping = EarlyStopping(monitor='val_MAE', \n                               patience=5,\n              
…
