…
e=(input_size,), name='Input') \n```", "```py\nencoding_size = 32 # compression factor: 784 / 32 = 24.5\nencoding = Dense(units=encoding_size,\n                 activation='relu',\n                 name='Encoder')(input_) \n```", "```py\ndecoding = Dense(units=input_size,\n                 activation='sigmoid',\n                 name='Decoder')(encoding) \n```", "```py\nautoencoder = Model(inputs=input_,\n                    outputs=decoding,\n                    name='Autoencoder') \n```", "```py\nLayer (type)                 Output Shape              Param #   \nInput (InputLayer)           (None, 784)               0         \nEncoder (Dense)              (None, 32)                25120     \nDecoder (Dense)              (None, 784)               25872     \nTotal params: 50,992\nTrainable params: 50,992\nNon-trainable params: 0 \n```", "```py\nencoder = Model(inputs=input_, outputs=encoding, name='Encoder')\nencoder.summary()\nLayer (type)                 Output Shape              Param #   \nInput (InputLayer)           (None, 784)               0         \nEncoder (Dense)              (None, 32)                25120     \nTotal params: 25,120\nTrainable params: 25,120\nNon-trainable params: 0 \n```", "```py\nencoded_input = Input(shape=(encoding_size,), name='Decoder_Input')\ndecoder_layer = autoencoder.layers[-1](encoded_input)\ndecoder = Model(inputs=encoded_input, outputs=decoder_layer)\ndecoder.summary()\nLayer (type)                 Output Shape              Param #   \nDecoder_Input (InputLayer)   (None, 32)                0         \nDecoder (Dense)              (None, 784)               25872     \nTotal params: 25,872\nTrainable params: 25,872\nNon-trainable params: 0 \n```", "```py\nautoencoder.compile(optimizer='adam', loss='mse')\nautoencoder.fit(x=X_train_scaled, y=X_train_scaled,\n                epochs=100, batch_size=32,\n                shuffle=True, validation_split=.1,\n                callbacks=[tb_callback, early_stopping, checkpointer]) \n```", "```py\nmse = autoencoder.
…
28, activation='relu', name='Encoding1')(input_)\nx = Dense(64, activation='relu', name='Encoding2')(x)\nencoding_deep = Dense(32, activation='relu', name='Encoding3')(x)\nx = Dense(64, activation='relu', name='Decoding1')(encoding_deep)\nx = Dense(128, activation='relu', name='Decoding2')(x)\ndecoding_deep = Dense(input_size, activation='sigmoid', name='Decoding3')(x)\nautoencoder_deep = Model(input_, decoding_deep) \n```", "```py\nLayer (type)                 Output Shape              Param #   \n=================================================================\ninput_1 (InputLayer)         (None, 784)               0         \n_________________________________________________________________\nEncoding1 (Dense)            (None, 128)               100480    \n_________________________________________________________________\nEncoding2 (Dense)            (None, 64)                8256      \n_________________________________________________________________\nEncoding3 (Dense)            (None, 32)                2080      \n_________________________________________________________________\nDecoding1 (Dense)            (None, 64)                2112      \n_________________________________________________________________\nDecoding2 (Dense)            (None, 128)               8320      \n_________________________________________________________________\nDecoding3 (Dense)            (None, 784)               101136    \n=================================================================\nTotal params: 222,384\nTrainable params: 222,384\nNon-trainable params: 0 \n```", "```py\ntsne = TSNE(perplexity=25, n_iter=5000)\ntrain_embed = tsne.fit_transform(encoder_deep.predict(X_train_scaled)) \n```", "```py\nx = Conv2D(filters=32,\n           kernel_size=(3, 3),\n           activation='relu',\n           padding='sa
…
