…
    model.add(Dense(80, input_dim=num_features, activation='relu'))\n    model.add(Dropout(0.2))\n    model.add(Dense(80, activation='relu'))\n    model.add(Dropout(0.2))\n    model.add(Dense(40, activation='relu'))\n    model.add(BatchNormalization())\n    model.add(Dense(1, activation='sigmoid'))\n```", "```py\nIn [ ]:\n    model.summary()\nOut[ ]:\n    _________________________________________________________________\n    Layer (type)                 Output Shape              Param #   \n    =================================================================\n    dense_17 (Dense)             (None, 80)                1920      \n    _________________________________________________________________\n    dropout_9 (Dropout)          (None, 80)                0         \n    _________________________________________________________________\n    dense_18 (Dense)             (None, 80)                6480      \n    _________________________________________________________________\n    dropout_10 (Dropout)         (None, 80)                0         \n    _________________________________________________________________\n    dense_19 (Dense)             (None, 40)                3240      \n    _________________________________________________________________\n    batch_normalization_5 (Batch (None, 40)                160       \n    _________________________________________________________________\n    dense_20 (Dense)             (None, 1)                 41        \n    =================================================================\n    Total params: 11,841\n    Trainable params: 11,761\n    Non-trainable params: 80\n    _________________________________________________________________\n```", "```py\nIn [ ]:\n    import tensorflow as tf\n\n    model.compile(optimizer=tf.train.AdamOptimizer(), \n                  loss='binary_crossentropy',\n     
…
